boo/policy.pth (torch, 41202 bytes, 11 tensors)

mlp_extractor.policy_net.0.weight f4 [64, 4]
0.048486408 -0.01051532 -0.25332335 0.10241795 -0.19372305 -0.19950499 0.08528028 0.0078857625
-0.17114504 -0.22324677 0.17168078 0.029453743 0.12119425 0.041165587 0.013238388 0.021128014
0.031126032 0.12234028 0.026377067 -0.02558306 0.08009636 0.042898633 0.10308255 -0.12626462
-0.44727996 -0.08468905 -0.32925963 -0.2640966 0.039666742 -0.19447955 0.09228179 -0.13330635
0.16409808 0.26058468 -0.18735914 0.0628989 0.09572753 -0.17415787 0.061053414 -0.13616541
0.16927572 0.07492244 -0.050754927 -0.18549643 -0.17604026 0.03180702 0.15695345 -0.05296374
0.09744533 -0.22575766 0.19820887 0.054918706 0.20955426 0.12546495 0.049794648 0.12217644
-0.050428603 -0.14510733 0.041028567 -0.0024849689 0.095236145 0.34230152 -0.041103944 -0.37786245
-0.11917968 -0.17382628 -0.26127768 0.16204274 0.21805114 -0.17664501 0.20594245 0.0019330182
0.017082538 0.031531807 -0.35590896 -0.056472223 -0.05880341 0.10453753 -0.15255919 -0.33854517
-0.09141425 0.023400014 -0.15285937 0.2798664 0.17263602 0.15107249 0.20526336 0.06573301
0.08788711 0.014187609 -0.32716417 -0.0857699 -0.22709443 0.1574404 -0.19647056 0.2574761
0.17157874 -0.116216876 -0.39321044 0.029519986 0.117672205 -0.13339722 -0.0104070455 0.13558605
-0.056809884 0.11406944 0.11234507 0.28182614 -0.12648742 0.10658184 0.1945271 -0.13918985
-0.14608301 0.23654202 0.2913591 0.302582 0.17214091 0.06816385 0.055132244 -0.18722302
0.24301524 -0.0040250523 -0.013923523 -0.036649525 0.055043325 -0.15373549 0.48712957 -0.046380583
-0.09497449 -0.076496735 -0.044757117 0.21171083 -0.3415533 -0.15934558 0.18237826 -0.124070875
-0.24794811 0.17357238 -0.20010316 0.115470596 -0.037135046 -0.050416265 -0.051445343 0.29004648
-0.17441653 -0.14482594 0.1739659 -0.10372947 0.16550858 -0.099483535 0.16599624 -0.15503344
0.20589939 0.052943427 -0.16455358 0.30805197 -0.20224304 -0.00019012773 0.0029754706 -0.25862586
0.07617841 0.023804769 0.26042 0.19576071 -0.1717679 0.12120111 -0.19629689 -0.074906476
-0.21069723 0.016318848 -0.030490236 0.014141799 -0.10687171 -0.30707842 -0.09952325 0.12926829
-0.12321091 -0.22661865 0.092152715 0.32379356 -0.050119303 0.12313549 0.090562925 0.0910177
0.27427608 0.065786265 0.14432575 -0.12031394 0.1528218 0.13372254 -0.13970342 0.22111668
-0.0998111 0.16242729 0.14239006 0.23176602 0.34601703 -0.17115897 -0.06452896 0.046511687
-0.04818185 -0.17654873 0.06588684 0.14680393 -0.22070587 -0.056496285 -0.094529144 -0.06435775
0.053459376 -0.28318176 0.10191603 0.0057948288 0.30377302 0.17477897 0.026131067 -0.041333374
-0.03313995 0.2963429 -0.06653196 0.06857908 -0.2976561 0.1061968 0.22903025 -0.015764574
-0.16431877 0.3527865 0.22468883 0.37345493 -0.19298913 -0.12408132 -0.069472775 0.22094667
-0.070100784 -0.15206508 -0.35587746 0.114121586 -0.3059042 0.10013281 0.08980291 -0.38290912
0.13438596 -0.40926942 0.03485086 0.14838369 -0.013292063 0.5730215 0.11212194 0.029223308
0.019865766 -0.09930765 -0.02151671 -0.25352076 0.35195434 -0.02453562 -0.100428626 0.011411091
00000000: af99 463d 7348 2cbc 99b3 81be 81c0 d13d
00000010: 565f 46be 094b 4cbe 6da7 ae3d 4933 013c
00000020: a540 2fbe cd9a 64be 16cd 2f3e fa48 f13c
00000030: b134 f83d 3f9d 283d d3e5 583c a814 ad3c
00000040: 05fc fe3c 8a8d fa3d b814 d83c 9193 d1bc
00000050: 8f09 a43d 7ab6 2f3d f21c d33d 834b 01be
00000060: e101 e5be 7471 adbd b894 a8be ab37 87be
00000070: 9879 223d a625 47be 3cfe bc3d 7681 08be
00000080: 5409 283e 5b6b 853e 13db 3fbe 23d1 803d
00000090: cc0c c43d 7156 32be 2513 7a3d f26e 0bbe
000000a0: 9d56 2d3e f070 993d 66e4 4fbd c7f2 3dbe
000000b0: e643 34be 1448 023d 68b8 203e 82f0 58bd
000000c0: 6b91 c73d 042d 67be 44f7 4a3e 70f2 603d
000000d0: 6495 563e e279 003e 79f5 4b3d a437 fa3d
000000e0: 398e 4ebd 0497 14be 920d 283d dcda 22bb
000000f0: 2b0b c33d 2542 af3e 9c5c 28bd 3077 c1be
00000100: 7a14 f4bd 84ff 31be 30c6 85be 88ee 253e
00000110: cc48 5f3e 6ee2 34be 94e2 523e 545d fd3a
00000120: aef0 8b3c 7f27 013d b339 b6be 6b4f 67bd
00000130: d8db 70bd c617 d63d 7a38 1cbe cb55 adbe
00000140: 6537 bbbd 63b1 bf3c 2b87 1cbe a64a 8f3e
00000150: 7fc7 303e bfb2 1a3e 8f30 523e 079f 863d
00000160: 28fe b33d 2573 683c 1082 a7be 21a8 afbd
00000170: 718b 68be 0e38 213e 942f 49be e8d3 833e
00000180: 56b2 2f3e 1d03 eebd e152 c9be e6d3 f13c
00000190: 20fe f03d 4899 08be 5082 2abc 12d7 0a3e
000001a0: 7bb1 68bd 3d9d e93d 2c15 e63d 844b 903e
000001b0: eb85 01be 9447 da3d 1d32 473e c987 0ebe
000001c0: c996 15be 1238 723e 052d 953e 07ec 9a3e
000001d0: b545 303e 7d99 8b3d 59d2 613d 64b7 3fbe
000001e0: fdd8 783e 96e4 83bb 7d1f 64bc d01d 16bd
000001f0: 1c75 613d d66c 1dbe 0c69 f93e 91f9 3dbd
00000200: fc81 c2bd 52aa 9cbd 3d53 37bd b9ca 583e
00000210: 13e0 aebe 7d2b 23be 5ec1 3a3e df18 febd
00000220: 1ce6 7dbe f5bc 313e d8e7 4cbe d97b ec3d
00000230: eb1a 18bd 4981 4ebd 5ab8 52bd f980 943e
00000240: 3f9a 32be 404d 14be 1e24 323e 1e70 d4bd
00000250: 157b 293e 06be cbbd ebfa 293e 16c1 1ebe
00000260: 4ad7 523e 35db 583d bc80 28be fdb8 9d3e
00000270: cd18 4fbe 065d 47b9 1d00 433b 9c6a 84be
00000280: 6d03 9c3d 3802 c33c c555 853e 7f75 483e
00000290: ede3 2fbe 4a38 f83d 0d02 49be 9168 99bd
000002a0: 04c1 57be 1baf 853c a9c6 f9bc 01b3 673c
000002b0: 8edf dabd 6239 9dbe d8d2 cbbd e85e 043e
000002c0: 0056 fcbd b80e 68be 90ba bc3d 45c8 a53e
000002d0: e649 4dbd 762e fc3d 0e79 b93d 7d67 ba3d
000002e0: ea6d 8c3e f3ba 863d 21ca 133e 2867 f6bd
000002f0: 517d 1c3e 90ee 083e 6a0e 0fbe 696c 623e
00000300: c369 ccbd 5753 263e b3ce 113e 1254 6d3e
00000310: 2529 b13e 4c44 2fbe c227 84bd 0a83 3e3d
00000320: 555a 45bd 31c9 34be aeef 863d c553 163e
00000330: b800 62be a668 67bd 7f98 c1bd ffcd 83bd
00000340: 38f8 5a3d 33fd 90be 5ab9 d03d 8ce2 bd3b
00000350: 2388 9b3e 42f9 323e d210 d63c 2f4d 29bd
00000360: c2bd 07bd 42ba 973e e941 88bd 3073 8c3d
00000370: 6166 98be b57d d93d e886 6a3e b524 81bc
00000380: 2e43 28be 6fa0 b43e d414 663e 7c35 bf3e
00000390: f19e 45be 591e febd be47 8ebd d83f 623e
000003a0: 0091 8fbd f3b6 1bbe 9235 b6be 94b8 e93d
000003b0: 7a9f 9cbe 6e12 cd3d 97ea b73d aa0c c4be
000003c0: 799c 093e c38b d1be c6bf 0e3d e5f1 173e
000003d0: f4c6 59bc 89b1 123f 30a0 e53d b865 ef3c
000003e0: 88bd a23c cf61 cbbd d043 b0bc 79cd 81be
000003f0: 5c33 b43e edfe c8bc 86ad cdbd 96f5 3a3c

mlp_extractor.policy_net.0.bias f4 [64]
0.0 0.0 0.0 0.0 0.0 0.0 0.0 0.0
0.0 0.0 0.0 0.0 0.0 0.0 0.0 0.0
0.0 0.0 0.0 0.0 0.0 0.0 0.0 0.0
0.0 0.0 0.0 0.0 0.0 0.0 0.0 0.0
0.0 0.0 0.0 0.0 0.0 0.0 0.0 0.0
0.0 0.0 0.0 0.0 0.0 0.0 0.0 0.0
0.0 0.0 0.0 0.0 0.0 0.0 0.0 0.0
0.0 0.0 0.0 0.0 0.0 0.0 0.0 0.0
00000000: 0000 0000 0000 0000 0000 0000 0000 0000
00000010: 0000 0000 0000 0000 0000 0000 0000 0000
00000020: 0000 0000 0000 0000 0000 0000 0000 0000
00000030: 0000 0000 0000 0000 0000 0000 0000 0000
00000040: 0000 0000 0000 0000 0000 0000 0000 0000
00000050: 0000 0000 0000 0000 0000 0000 0000 0000
00000060: 0000 0000 0000 0000 0000 0000 0000 0000
00000070: 0000 0000 0000 0000 0000 0000 0000 0000
00000080: 0000 0000 0000 0000 0000 0000 0000 0000
00000090: 0000 0000 0000 0000 0000 0000 0000 0000
000000a0: 0000 0000 0000 0000 0000 0000 0000 0000
000000b0: 0000 0000 0000 0000 0000 0000 0000 0000
000000c0: 0000 0000 0000 0000 0000 0000 0000 0000
000000d0: 0000 0000 0000 0000 0000 0000 0000 0000
000000e0: 0000 0000 0000 0000 0000 0000 0000 0000
000000f0: 0000 0000 0000 0000 0000 0000 0000 0000

mlp_extractor.policy_net.2.weight f4 [64, 64]
0.28943184 0.1839401 0.06778851 0.32269168 -0.049530324 0.16635638 -0.16374443 -0.051399514
-0.08573165 0.2010741 0.23504668 0.105284765 0.2775612 0.08772556 0.181898 -0.15024409
0.06322421 -0.105700634 0.15721199 -0.20495383 -0.23042391 0.23043565 -0.22556138 -0.11617202
-0.15007058 -0.23214455 0.24060652 -0.07440409 -0.015529308 0.29410264 0.03236265 0.13090008
0.29524058 0.35536295 -0.1039578 0.1703592 0.009219658 0.11222663 -0.14216928 -0.14181843
0.3937386 0.037407942 -0.09224414 -0.08627803 0.059659425 0.021963056 -0.06277202 0.03190517
-0.10208154 -0.06601265 -0.16742858 0.1156888 -0.20924482 -0.12155307 -0.07267687 -0.13510886
-0.10423998 0.119116105 -0.2621062 0.21316639 -0.32732722 0.16905002 0.05877173 0.24090248
-0.1470106 0.19442864 0.08746773 -0.04043938 -0.21223433 0.07734031 -0.060432885 -0.07409804
0.26050195 -0.14981954 0.015394309 0.22735831 -0.35937348 0.27311963 0.104666196 -0.13604014
0.030463375 -0.19410244 0.11001226 -0.24866804 -0.12309186 -0.17054942 0.3244866 0.03761826
0.22200151 -0.033774447 -0.110183135 0.053661607 -0.017029129 -0.03873218 -0.14205788 0.019562349
0.29492074 -0.028908521 0.037490554 -0.16314551 -0.10103376 0.11909684 0.022359371 -0.31540346
-0.060783055 0.029619105 -0.27104464 -0.36530495 -0.3209811 -0.07564266 0.10218891 -0.24762742
0.2152084 -0.16024756 -0.0051712547 -0.051314384 0.15620586 0.12241839 0.34229392 0.021411786
-0.0076175905 0.07105675 -0.07878328 -0.106099814 -0.23025164 0.3113058 0.2515671 -0.21154498
-0.14023809 0.2489016 0.33907628 -0.17193636 -0.09811643 -0.050312232 -0.023295734 -0.12448496
-0.13540363 -0.03596218 -0.026555374 -0.09808898 -0.08277105 0.07044796 -0.12626556 0.09761563
-0.021933505 -0.028015977 -0.14664353 -0.02509692 -0.006798041 -0.019556371 0.2273323 -0.22530778
0.38271767 0.1770756 -0.1406842 -0.21763916 -0.17633943 -0.030538334 0.21472283 0.0058273226
0.37252158 -0.00422421 -0.016534155 0.3883048 0.08388983 -0.06509269 0.045051925 -0.0034549115
0.20255494 0.28984323 -0.35471088 0.09914271 -0.08263809 0.22209558 -0.38395202 0.024931936
-0.018889384 -0.122369066 0.0981606 -0.10077548 -0.45064536 -0.020538641 -0.16679247 -0.082442164
0.1630459 -0.16355267 0.011648553 -0.099209026 0.18133105 -0.28827646 -0.07148635 0.057358887
-0.21404256 -0.0058741104 0.040117733 -0.0024070907 0.042089608 -0.073496714 -0.117632955 -0.15641184
-0.13248837 -0.27591345 0.005451484 -0.18501714 -0.12063713 -0.33044714 0.052976858 0.1110211
-0.18518178 -0.36107585 0.30822888 -0.37392178 0.030992363 -0.080853716 -0.048499253 0.2721307
-0.089498766 -0.13037792 0.22522311 0.13818008 0.2072363 -0.13031994 0.27499115 -0.38950554
0.00063990505 -0.29387474 0.36628252 -0.13179603 -0.086586185 0.124954544 -0.112083144 -0.30410603
0.15519525 -0.018102208 -0.15192762 0.21930677 0.22003542 0.18553825 0.13745314 0.16562565
0.15952069 -0.03082147 -0.070319615 -0.013961034 -0.12468679 0.019605588 -0.07184643 0.016446775
-0.017499778 0.080543816 -0.23021382 0.10987193 -0.062418092 -0.19471498 -0.13091771 -0.015168086
00000000: 6930 943e cb5a 3c3e b4d4 8a3d d837 a53e
00000010: 4fe0 4abd 5459 2a3e 9fac 27be 4c88 52bd
00000020: 1394 afbd 5ee6 4d3e 14b0 703e 8a9f d73d
00000030: 801c 8e3e 75a9 b33d 7843 3a3e 96d9 19be
00000040: b27b 813d 9379 d8bd 2efc 203e 6bdf 51be
00000050: 3ff4 6bbe 53f7 6b3e 90f9 66be 99eb edbd
00000060: 1aac 19be 4db7 6dbe 8e61 763e 2c61 98bd
00000070: a36e 7ebc 9f94 963e b38e 043d ac0a 063e
00000080: c629 973e 22f2 b53e d4e7 d4bd a472 2e3e
00000090: 0c0e 173c 13d7 e53d d394 11be da38 11be
000000a0: 1b98 c93e 1239 193d 7fea bcbd 89b2 b0bd
000000b0: 715d 743d deeb b33c 9e8e 80bd ffae 023d
000000c0: 2010 d1bd a431 87bd 6672 2bbe 40ee ec3d
000000d0: 4644 56be d1f0 f8bd 9cd7 94bd fa59 0abe
000000e0: c57b d5bd 25f3 f33d c932 86be 4a48 5a3e
000000f0: 6f97 a7be 731b 2d3e a0ba 703d 24af 763e
00000100: f289 16be 4d18 473e 4822 b33d c3a3 25bd
00000110: f553 59be 9964 9e3d 7988 77bd b7c0 97bd
00000120: 8360 853e 4b6a 19be 6938 7c3c 9ed0 683e
00000130: cdff b7be 56d6 8b3e 3b5b d63d 1b4e 0bbe
00000140: 548e f93c cac2 46be 1c4e e13d d6a2 7ebe
00000150: 9617 fcbd 82a4 2ebe 1c23 a63e 9b15 1a3d
00000160: 5d54 633e 1357 0abd b2a7 e1bd 46cc 5b3d
00000170: ac80 8bbc a2a5 1ebd 9f77 11be 3841 a03c
00000180: daff 963e 90d1 ecbc b28f 193d 9e0f 27be
00000190: caea cebd 0be9 f33d 002b b73c 907c a1be
000001a0: a7f7 78bd c4a3 f23c 5dc6 8abe 4009 bbbe
000001b0: a257 a4be 8aea 9abd 6b48 d13d 0b92 7dbe
000001c0: 975f 5c3e f017 24be a173 a9bb 082f 52bd
000001d0: 6ef4 1f3e 7eb6 fa3d 2641 af3e c567 af3c
000001e0: fb9c f9bb 3486 913d 2159 a1bd dc4a d9bd
000001f0: 16c7 6bbe 7963 9f3e 67cd 803e 3f9f 58be
00000200: 939a 0fbe 10e0 7e3e 689b ad3e 1610 30be
00000210: 44f1 c8bd 3314 4ebd b2d6 bebc f9f1 febd
00000220: 40a7 0abe 144d 13bd a88a d9bc e0e2 c8bd
00000230: de83 a9bd 0547 903d c24b 01be b4ea c73d
00000240: e5ad b3bc c381 e5bc b929 16be 0e98 cdbc
00000250: 1ac2 debb af34 a0bc ccc9 683e 15b7 66be
00000260: 92f3 c33e 4e53 353e 850f 10be cddc 5ebe
00000270: 5392 34be 872b fabc 4de0 5b3e 20f3 be3b
00000280: 26bb be3e 3e6b 8abb a372 87bc e3cf c63e
00000290: 6ece ab3d 514f 85bd 5e88 383d cc6b 62bb
000002a0: 906a 4f3e 5566 943e aa9c b5be 550b cb3d
000002b0: 293e a9bd 066d 633e 5c95 c4be 0f3e cc3c
000002c0: e9bd 9abc a29c fabd 6d08 c93d 6063 cebd
000002d0: fdba e6be a740 a8bc a5cb 2abe 70d7 a8bd
000002e0: 81f5 263e 5a7a 27be 93d9 3e3c 1a2e cbbd
000002f0: d9ae 393e f998 93be 6f67 92bd 27f1 6a3d
00000300: f92d 5bbe 9c7b c0bb 7e52 243d 48c0 1dbb
00000310: 2766 2c3d 7285 96bd 8ce9 f0bd 6d2a 20be
00000320: 08ab 07be 8744 8dbe 5da2 b23b 2275 3dbe
00000330: 9a10 f7bd 5e30 a9be 43fe 583d 085f e33d
00000340: 4ba0 3dbe efde b8be 2dd0 9d3e ad72 bfbe
00000350: b2e3 fd3c a296 a5bd 27a7 46bd b754 8b3e
00000360: 214b b7bd ca81 05be e3a0 663e 147f 0d3e
00000370: c135 543e 9772 05be a4cb 8c3e 456d c7be
00000380: 4dbf 273a c076 96be 6289 bb3e 8af5 06be
00000390: 1954 b1bd 2be8 ff3d d98b e5bd c9b3 9bbe
000003a0: 81eb 1e3e 154b 94bc ea92 1bbe f491 603e
000003b0: f750 613e bdfd 3d3e 84c0 0c3e c599 293e
000003c0: 6459 233e 4f7d fcbc bb03 90bd d2bc 64bc
000003d0: ca5b ffbd e69b a03c 3924 93bd 63bb 863c
000003e0: b25b 8fbc 28f4 a43d 2cbd 6bbe 8904 e13d
000003f0: 1daa 7fbd 5d63 47be 4b0f 06be 9083 78bc

mlp_extractor.policy_net.2.bias f4 [64]
0.0 0.0 0.0 0.0 0.0 0.0 0.0 0.0
0.0 0.0 0.0 0.0 0.0 0.0 0.0 0.0
0.0 0.0 0.0 0.0 0.0 0.0 0.0 0.0
0.0 0.0 0.0 0.0 0.0 0.0 0.0 0.0
0.0 0.0 0.0 0.0 0.0 0.0 0.0 0.0
0.0 0.0 0.0 0.0 0.0 0.0 0.0 0.0
0.0 0.0 0.0 0.0 0.0 0.0 0.0 0.0
0.0 0.0 0.0 0.0 0.0 0.0 0.0 0.0
00000000: 0000 0000 0000 0000 0000 0000 0000 0000
00000010: 0000 0000 0000 0000 0000 0000 0000 0000
00000020: 0000 0000 0000 0000 0000 0000 0000 0000
00000030: 0000 0000 0000 0000 0000 0000 0000 0000
00000040: 0000 0000 0000 0000 0000 0000 0000 0000
00000050: 0000 0000 0000 0000 0000 0000 0000 0000
00000060: 0000 0000 0000 0000 0000 0000 0000 0000
00000070: 0000 0000 0000 0000 0000 0000 0000 0000
00000080: 0000 0000 0000 0000 0000 0000 0000 0000
00000090: 0000 0000 0000 0000 0000 0000 0000 0000
000000a0: 0000 0000 0000 0000 0000 0000 0000 0000
000000b0: 0000 0000 0000 0000 0000 0000 0000 0000
000000c0: 0000 0000 0000 0000 0000 0000 0000 0000
000000d0: 0000 0000 0000 0000 0000 0000 0000 0000
000000e0: 0000 0000 0000 0000 0000 0000 0000 0000
000000f0: 0000 0000 0000 0000 0000 0000 0000 0000

mlp_extractor.value_net.0.weight f4 [64, 4]
-0.086578056 0.0678521 -0.40798292 0.19003126 -0.09332493 -0.041632086 -0.17228499 -0.08815617
0.17608409 -0.049217507 -0.1335967 -0.3765411 -0.23147453 -0.030098006 0.009265894 -0.13863404
0.038192257 0.27011698 -0.0034190225 0.21463862 0.11440097 0.016657341 0.007895788 0.20805693
0.013393784 -0.3049173 0.06100126 0.05392684 -0.09903464 -0.16712922 0.28526026 -0.0018113103
0.080342494 -0.06933416 0.0073573473 -0.4303682 -0.027639098 0.14243399 -0.019114077 -0.16514485
0.26087153 -0.19713777 -0.23769028 0.13525052 -0.42982528 -0.047265634 0.062495034 -0.17139685
0.15517741 -0.012503933 0.30580014 -0.08116027 0.105413966 -0.0035710991 -0.08164013 -0.16920929
0.11577293 0.119280145 -0.18848982 0.12293588 -0.07967054 -0.024017608 0.03927762 0.31792668
0.30188516 0.105038196 0.18293384 -0.020844543 -0.068558104 -0.3470584 0.048644394 -0.3108333
0.238885 -0.21336424 0.23677039 0.050149165 -0.004488066 0.15049005 0.032521147 -0.14254923
-0.044429317 -0.20964965 0.21675159 0.29479805 -0.1735054 -0.10529118 -0.24879321 0.3815562
0.13894263 0.21741979 0.10110072 0.10947988 0.02727586 0.1470434 0.1297135 -0.0129256835
0.44523552 0.18933159 -0.13914806 0.28761557 -0.12131141 -0.2772359 0.08612113 0.10638791
-0.10880359 -0.2731022 0.20956244 0.10884637 0.05179197 -0.025125789 0.12304468 -0.17330144
0.019987307 -0.006354198 -0.10757531 0.18214072 -0.23222978 -0.13550235 0.026545746 0.0016859102
-0.06884279 -0.2504328 -0.31636298 0.10258583 0.022451065 0.14433023 -0.013413553 0.08158597
-0.17008874 0.113841794 -0.24869995 -0.0027004927 -0.0927177 0.053637795 0.13219611 -0.07522991
0.07201956 0.017616337 -0.105402395 -0.020010158 -0.10129404 -0.26771683 0.021890208 0.031473797
0.29781497 -0.20535232 -0.13742708 -0.08190711 -0.27596885 -0.018094333 -0.019960962 0.08463788
0.16115195 -0.2337037 -0.13264489 0.20299059 -0.16274111 -0.14037776 0.100413255 -0.29009938
-0.11528146 0.20372988 0.11582859 0.12659335 0.4144114 -0.36584473 -0.006762689 -0.08378854
0.21351488 0.10560005 -0.27859145 -0.08305658 0.24170189 0.10398579 0.06602298 -0.2548552
0.19426057 0.05669013 0.1584515 -0.3112475 -0.108672604 -0.11891081 -0.24083923 -0.18497074
0.11236085 0.14439844 0.007031588 -0.292559 0.12921017 -0.012367986 0.3419626 0.042642176
0.19948474 0.036560263 -0.03593245 -0.20695399 0.2436375 -0.4462479 -0.38664192 -0.052817296
-0.2095341 0.11615353 -0.12093097 -0.049330067 0.18014558 0.0147243645 0.019066859 0.10417003
0.26057187 0.08579286 -0.0025082247 0.15304162 0.2110084 0.15750693 0.2951101 0.02941567
0.1015373 -0.09555765 -0.029266661 0.004607152 0.007272544 0.1299631 -0.19310103 0.09740302
0.059875317 -0.011155859 0.12770241 0.111549556 -0.08256649 0.00058646005 0.17760439 -0.16257314
0.055207018 -0.288757 0.39702684 0.23422843 0.13853076 -0.2589484 -0.19463465 -0.12891383
-0.1397931 0.018286558 -0.12859702 -0.1885881 0.08834124 -0.39525247 0.18707511 0.15418202
-0.26660293 -0.23661192 0.02786201 0.0020941899 0.008564547 0.16055354 0.23525007 0.13557719
00000000: d64f b1bd 0bf6 8a3d 23e3 d0be 8e97 423e
00000010: 2421 bfbd 6886 2abd 7a6b 30be 398b b4bd
00000020: 634f 343e 4c98 49bd 93cd 08be ffc9 c0be
00000030: a907 6dbe 1890 f6bc facf 173c 15f6 0dbe
00000040: 7c6f 1c3d c64c 8a3e ae11 60bb 3aca 5b3e
00000050: 0e4b ea3d fa74 883c 565d 013c e00c 553e
00000060: 9a71 5b3c 1f1e 9cbe 75dc 793d 64e2 5c3d
00000070: acd2 cabd ec23 2bbe a20d 923e 7d69 edba
00000080: 9b8a a43d 11ff 8dbd e715 f13b 3959 dcbe
00000090: 646b e2bc 37da 113e 2095 9cbc bb1b 29be
000000a0: f490 853e 7cde 49be 1565 73be 1d7f 0a3e
000000b0: 0f12 dcbe 9c99 41bd cbfa 7f3d a882 2fbe
000000c0: d4e6 1e3e 4cdd 4cbc d691 9c3e 5b37 a6bd
000000d0: 47e3 d73d 1a09 6abb f132 a7bd 3345 2dbe
000000e0: 5c1a ed3d 2649 f43d 7a03 41be cfc5 fb3d
000000f0: 4f2a a3bd 93c0 c4bc 92e1 203d 49c7 a23e
00000100: b190 9a3e 441e d73d 0253 3b3e 2dc2 aabc
00000110: 3168 8cbd a3b1 b1be 583f 473d 8b25 9fbe
00000120: 459e 743e 287c 5abe f073 723e 3669 4d3d
00000130: a010 93bb 101a 1a3e e534 053d 6df8 11be
00000140: 84fb 35bd 66ae 56be 21f4 5d3e c5ef 963e
00000150: 66ab 31be e7a2 d7bd a6c3 7ebe 565b c33e
00000160: fa46 0e3e 4ba3 5e3e e50d cf3d fd36 e03d
00000170: a071 df3c 8c92 163e 9ed3 043e 3fc6 53bc
00000180: e9f5 e33e 24e0 413e d47c 0ebe 5942 933e
00000190: 1e72 f8bd ddf1 8dbe 4660 b03d e8e1 d93d
000001a0: 6bd4 debd 0dd4 8bbe 8997 563e d8ea de3d
000001b0: d123 543d 99d4 cdbc d9fe fb3d ef75 31be
000001c0: 6cbc a33c e036 d0bb 7250 dcbd 1983 3a3e
000001d0: a5cd 6dbe 21c1 0abe 7776 d93c c2f9 dc3a
000001e0: 73fd 8cbd ba38 80be 54fa a1be 8518 d23d
000001f0: 4ceb b73c 4ecb 133e 85c4 5bbc 8c16 a73d
00000200: be2b 2ebe e325 e93d 33ab 7ebe c0fa 30bb
00000210: c7e2 bdbd 4eb3 5b3d 6b5e 073e 2412 9abd
00000220: fe7e 933d 2350 903c 36dd d7bd 58ec a3bc
00000230: 4073 cfbd 2e12 89be 1853 b33c abea 003d
00000240: 347b 983e e147 52be afb9 0cbe eabe a7bd
00000250: ca4b 8dbe 913a 94bc 2c85 a3bc a056 ad3d
00000260: 0405 253e 0650 6fbe 10d4 07be c4dc 4f3e
00000270: 9ba5 26be 30bf 0fbe 77a5 cd3d e887 94be
00000280: b018 ecbd 919e 503e 8a37 ed3d b0a1 013e
00000290: bb2d d43e 0050 bbbe 8c99 ddbb 5399 abbd
000002a0: a5a3 5a3e d744 d83d 8aa3 8ebe 9119 aabd
000002b0: b380 773e 80f6 d43d 0e37 873d 617c 82be
000002c0: 3eec 463e e933 683d 1c41 223e d55b 9fbe
000002d0: be8f debd 8387 f3bd 8f9e 76be f868 3dbe
000002e0: 721d e63d 2fdd 133e 3c69 e63b 4bca 95be
000002f0: ac4f 043e 18a3 4abc b915 af3e 90a9 2e3d
00000300: ba45 4c3e 37c0 153d e82d 13bd bfeb 53be
00000310: 1c7c 793e 9b7a e4be eef5 c5be f356 58bd
00000320: 1b90 56be e7e1 ed3d a8aa f7bd 530e 4abd
00000330: 1578 383e 763e 713c 1a32 9c3c 1957 d53d
00000340: ad69 853e 2bb4 af3d 0761 24bb f1b6 1c3e
00000350: 9612 583e 7f49 213e ac18 973e 22f9 f03c
00000360: caf2 cf3d bbb3 c3bd a3c0 efbc 98f7 963b
00000370: 854e ee3b 0c15 053e 47bc 45be 3c7b c73d
00000380: d23f 753d 10c7 36bc 6cc4 023e 1874 e43d
00000390: 9f18 a9bd abbc 193a eddd 353e 9379 26be
000003a0: c120 623d f5d7 93be 1a47 cb3e 94d9 6f3e
000003b0: 02db 0d3e e294 84be 4e4e 47be fd01 04be
000003c0: ec25 0fbe b1cd 953c f0ae 03be 3d1d 41be
000003d0: 41ec b43d 885e cabe 9e90 3f3e e4e1 1d3e
000003e0: 2e80 88be 654a 72be df3e e43c ad3e 093b
000003f0: 5052 0c3c 2668 243e 65e5 703e bfd4 0a3e

mlp_extractor.value_net.0.bias f4 [64]
0.0 0.0 0.0 0.0 0.0 0.0 0.0 0.0
0.0 0.0 0.0 0.0 0.0 0.0 0.0 0.0
0.0 0.0 0.0 0.0 0.0 0.0 0.0 0.0
0.0 0.0 0.0 0.0 0.0 0.0 0.0 0.0
0.0 0.0 0.0 0.0 0.0 0.0 0.0 0.0
0.0 0.0 0.0 0.0 0.0 0.0 0.0 0.0
0.0 0.0 0.0 0.0 0.0 0.0 0.0 0.0
0.0 0.0 0.0 0.0 0.0 0.0 0.0 0.0
00000000: 0000 0000 0000 0000 0000 0000 0000 0000
00000010: 0000 0000 0000 0000 0000 0000 0000 0000
00000020: 0000 0000 0000 0000 0000 0000 0000 0000
00000030: 0000 0000 0000 0000 0000 0000 0000 0000
00000040: 0000 0000 0000 0000 0000 0000 0000 0000
00000050: 0000 0000 0000 0000 0000 0000 0000 0000
00000060: 0000 0000 0000 0000 0000 0000 0000 0000
00000070: 0000 0000 0000 0000 0000 0000 0000 0000
00000080: 0000 0000 0000 0000 0000 0000 0000 0000
00000090: 0000 0000 0000 0000 0000 0000 0000 0000
000000a0: 0000 0000 0000 0000 0000 0000 0000 0000
000000b0: 0000 0000 0000 0000 0000 0000 0000 0000
000000c0: 0000 0000 0000 0000 0000 0000 0000 0000
000000d0: 0000 0000 0000 0000 0000 0000 0000 0000
000000e0: 0000 0000 0000 0000 0000 0000 0000 0000
000000f0: 0000 0000 0000 0000 0000 0000 0000 0000

mlp_extractor.value_net.2.weight f4 [64, 64]
0.007121637 -0.067541346 0.10340748 -0.05484693 0.15479796 0.37481683 -0.31251377 0.15075853
0.012416567 -0.26883176 -0.10433825 0.008437799 0.0048064105 -0.11831892 -0.28975314 0.10366654
0.0038257346 -0.42940006 -0.092278965 -0.2829383 0.17017697 0.123606786 0.27601525 -0.13532302
-0.16717236 0.012565439 0.30603352 -0.032999955 -0.00026899067 0.22996119 0.029630959 -0.04588938
0.31797177 0.010519846 -0.28433725 0.21072945 0.06810631 -0.40301782 0.24799235 0.053242523
-0.061996587 0.014031427 0.13401048 -0.04142174 -0.007587434 0.11424244 -0.35510966 0.14662069
-0.079912685 -0.11785665 -0.34129015 0.003756673 -0.15680024 0.079778045 0.039005615 0.13177472
-0.19504845 -0.051448558 0.03853203 -0.10624574 0.022934936 0.09258926 0.15117277 -0.00025066428
-0.049677573 -0.16294494 0.011801063 0.072940655 -0.10832322 0.041996606 -0.11971516 0.16196944
0.024253298 -0.20797956 -0.012041917 0.12072355 -0.33662438 0.16413207 -0.12445709 -0.19889802
-0.04640139 0.2080751 -0.38969982 0.23340146 -0.104254484 -0.13672842 -0.072221756 -0.16833156
-0.0197294 0.05657799 -0.03388553 -0.02272375 0.19996734 -0.0044490746 0.09366004 0.05364872
0.11298344 0.1589594 0.24702993 -0.12305323 -0.10574064 -0.2730887 0.15956263 -0.0890212
-0.43754587 0.07605155 -0.274599 -0.008137412 -0.25103557 -0.11805413 -0.18196048 0.17914471
-0.36630622 0.0024625994 0.2791126 0.13873516 0.05956123 0.23135354 0.1759988 -0.18279263
-0.17684314 -0.08947928 -0.09688483 0.33846474 0.15374546 -0.26812884 -0.120464586 -0.107258216
-0.13532652 0.26007104 -0.29081222 0.11121301 0.07870693 -0.18613902 -0.1907025 0.082555115
-0.02739376 0.100452885 0.3835891 -0.071489766 -0.010796731 0.28301418 -0.2027482 0.06538646
0.049413405 -0.27868658 0.16775742 -0.029035188 0.34554267 -0.023439448 0.09748002 0.065693825
0.19533285 -0.08642399 -0.050173927 0.18506065 0.013132236 -0.2730929 -0.15213215 0.24101566
0.021595234 -0.10889601 0.20293961 -0.059660934 0.06548307 -0.0015443711 0.19211034 0.41172382
0.082820445 0.102029234 0.038804196 0.025461927 -0.32052144 -0.083146766 -0.19027011 -0.11304075
-0.18271531 0.10427491 0.18216683 -0.06703238 0.2468013 0.16176344 -0.19812167 -0.089381084
-0.14493167 -0.27648154 0.18054108 -0.20194905 0.0038666704 0.25028124 -0.13220406 -0.2238599
-0.023802187 -0.18454485 0.27117336 -0.10081104 0.3113975 -0.0065804375 0.3809099 -0.15540995
0.16733618 0.27308604 -0.0043016286 0.12390847 -0.10741799 0.27719304 0.16550574 -0.20877226
0.07035588 -0.15599985 0.17368728 0.1825661 0.1019477 0.07307705 0.12918417 -0.083449945
0.20193385 0.14454313 0.08998318 0.26448718 0.05616553 0.09559377 -0.30530363 -0.12402566
0.03563328 -0.05298623 -0.14370474 0.108853 0.009779728 0.12194228 0.15906405 -0.10757319
-0.04188558 -0.13479434 -0.062108774 0.21674722 -0.025907038 -0.08299397 -0.015855594 0.01146477
-0.0932876 -0.26465362 0.027161958 -0.55185056 0.021442082 0.37608138 0.37199068 -0.056772277
-0.09787627 -0.14560488 0.09618534 0.036101017 -0.052868437 -0.04846501 0.14763589 0.20599048
00000000: 9f5c e93b 1e53 8abd 4dc7 d33d 2da7 60bd
00000010: 5b83 1e3e fee7 bf3e ce01 a0be 7260 1a3e
00000020: db6e 4b3c 51a4 89be 4baf d5bd b23e 0a3c
00000030: 187f 9d3b 3151 f2bd 865a 94be 1f4f d43d
00000040: 2db9 7a3b 53da dbbe c1fc bcbd 4add 90be
00000050: df42 2e3e 8e25 fd3d df51 8d3e 1e92 0abe
00000060: 3b2f 2bbe 45df 4d3c 6db0 9c3e f62a 07bd
00000070: 5107 8db9 f27a 6b3e a0bc f23c 81f6 3bbd
00000080: 32cd a23e 6f5b 2c3c a794 91be 76c9 573e
00000090: 527b 8b3d 5a58 cebe b5f1 7d3e d514 5a3d
000000a0: 22f0 7dbd 12e4 653c 0b3a 093e d8a9 29bd
000000b0: 02a0 f8bb f1f7 e93d efd0 b5be bc23 163e
000000c0: 43a9 a3bd d45e f1bd 95bd aebe 8432 763b
000000d0: 3e90 20be ac62 a33d 5ac4 1f3d f4ef 063e
000000e0: c8ba 47be b9bb 52bd c3d3 1d3d 5e97 d9bd
000000f0: 0ce2 bb3c 709f bd3d 09cd 1a3e 976b 83b9
00000100: b67a 4bbd 0adb 26be 3f59 413c e961 953d
00000110: 90d8 ddbd a204 2c3d 392d f5bd 51db 253e
00000120: daae c63c 98f8 54be 764b 45bc e93d f73d
00000130: 085a acbe 3d12 283e 5ce3 febd ecab 4bbe
00000140: 620f 3ebd a411 553e bc86 c7be cb00 6f3e
00000150: 6083 d5bd 8902 0cbe 00e9 93bd 1c5f 2cbe
00000160: 8d9f a1bc 53be 673d 8ecb 0abd 2827 babc
00000170: 3dc4 4c3e 8bc9 91bb d6d0 bf3d c3be 5b3d
00000180: dd63 e73d 41c6 223e 6af5 7c3e 5503 fcbd
00000190: 8c8e d8bd 48d2 8bbe 6364 233e bf50 b6bd
000001a0: 0306 e0be eac0 9b3d 3d98 8cbe c852 05bc
000001b0: bc87 80be 5dc6 f1bd d953 3abe b671 373e
000001c0: 7d8c bbbe 9063 213b d9e7 8e3e 9710 0e3e
000001d0: 7af6 733d f1e7 6c3e 0839 343e fe2d 3bbe
000001e0: 5e16 35be ea40 b7bd 8e6b c6bd 404b ad3e
000001f0: 736f 1d3e 2f48 89be 23b6 f6bd 32aa dbbd
00000200: 0993 0abe 0828 853e 57e5 94be a6c3 e33d
00000210: 1931 a13d 3a9b 3ebe 8447 43be a812 a93d
00000220: e168 e0bc 3eba cd3d ca65 c43e 3a69 92bd
00000230: c6e4 30bc 3ce7 903e 399d 4fbe 56e9 853d
00000240: b665 4a3d 02b0 8ebe 9ac8 2b3e 34db edbc
00000250: f8ea b03e 1604 c0bc 9ba3 c73d 7c8a 863d
00000260: 5605 483e 10ff b0bd 2d83 4dbd 8a80 3d3e
00000270: 9728 573c d5d2 8bbe 88c8 1bbe cfcc 763e
00000280: 7de8 b03c df04 dfbd 67cf 4f3e 065f 74bd
00000290: fd1b 863d 7f6c caba 93b8 443e 77cd d23e
000002a0: c49d a93d b4f4 d03d 26f1 1e3d 8895 d03c
000002b0: 631b a4be da48 aabd 2bd6 42be e981 e7bd
000002c0: b919 3bbe 168e d53d f189 3a3e 4648 89bd
000002d0: 7bb9 7c3e 51a5 253e 68e0 4abe 6e0d b7bd
000002e0: f868 14be fd8e 8dbe c3df 383e bbcb 4ebe
000002f0: f767 7d3b dd24 803e 8060 07be 883b 65be
00000300: cefc c2bc 53f9 3cbe 3cd7 8a3e 0576 cebd
00000310: 7e6f 9f3e b6a0 d7bb 9f06 c33e c923 1fbe
00000320: 2d5a 2b3e efd1 8b3e adf4 8cbb b9c3 fd3d
00000330: f7fd dbbd 3fec 8d3e 567a 293e 65c8 55be
00000340: be16 903d 6dbe 1fbe 14db 313e 9cf2 3a3e
00000350: f5c9 d03d 6ca9 953d db48 043e cee7 aabd
00000360: bfc7 4e3e 1d03 143e 1a49 b83d dd6a 873e
00000370: d40d 663d abc6 c33d c250 9cbe 2a01 febd
00000380: 34f4 113d 1708 59bd 5627 13be 52ee de3d
00000390: 273b 203c e0bc f93d b0e1 223e 554f dcbd
000003a0: 3790 2bbd 8707 0abe c565 7ebd fcf2 5d3e
000003b0: ff3a d4bc bef8 a9bd 97e3 81bc bbd6 3b3c
000003c0: 920d bfbd ae80 87be c182 de3c 1446 0dbf
000003d0: 4ea7 af3c bd8d c03e 9075 be3e 0c8a 68bd
000003e0: 5b73 c8bd 7219 15be d2fc c43d a9de 133d
000003f0: 938c 58bd 3f83 46bd dd2d 173e 2bef 523e

mlp_extractor.value_net.2.bias f4 [64]
0.0 0.0 0.0 0.0 0.0 0.0 0.0 0.0
0.0 0.0 0.0 0.0 0.0 0.0 0.0 0.0
0.0 0.0 0.0 0.0 0.0 0.0 0.0 0.0
0.0 0.0 0.0 0.0 0.0 0.0 0.0 0.0
0.0 0.0 0.0 0.0 0.0 0.0 0.0 0.0
0.0 0.0 0.0 0.0 0.0 0.0 0.0 0.0
0.0 0.0 0.0 0.0 0.0 0.0 0.0 0.0
0.0 0.0 0.0 0.0 0.0 0.0 0.0 0.0
00000000: 0000 0000 0000 0000 0000 0000 0000 0000
00000010: 0000 0000 0000 0000 0000 0000 0000 0000
00000020: 0000 0000 0000 0000 0000 0000 0000 0000
00000030: 0000 0000 0000 0000 0000 0000 0000 0000
00000040: 0000 0000 0000 0000 0000 0000 0000 0000
00000050: 0000 0000 0000 0000 0000 0000 0000 0000
00000060: 0000 0000 0000 0000 0000 0000 0000 0000
00000070: 0000 0000 0000 0000 0000 0000 0000 0000
00000080: 0000 0000 0000 0000 0000 0000 0000 0000
00000090: 0000 0000 0000 0000 0000 0000 0000 0000
000000a0: 0000 0000 0000 0000 0000 0000 0000 0000
000000b0: 0000 0000 0000 0000 0000 0000 0000 0000
000000c0: 0000 0000 0000 0000 0000 0000 0000 0000
000000d0: 0000 0000 0000 0000 0000 0000 0000 0000
000000e0: 0000 0000 0000 0000 0000 0000 0000 0000
000000f0: 0000 0000 0000 0000 0000 0000 0000 0000

action_net.weight f4 [2, 64]
0.0015547037 -0.0010403679 -0.0014562048 0.0021220944 0.00017508502 7.721836e-05 -0.0007851398 0.0020076
-0.0016759427 -0.0006215326 0.0001659174 0.001408665 -0.00016166529 0.0012218541 -0.0010321835 0.0009094339
-0.00019138289 0.0016473087 -0.0033616158 -0.0021266781 -0.0018487833 -0.00185724 -0.0006910467 -0.0018228033
0.0005017469 -0.00079246424 0.0006938154 -0.00090524025 0.0013693104 0.00050950627 -0.00017918702 0.0014110532
-0.00081450556 0.0013818998 -0.0014930805 -0.00037760328 0.0007101375 -0.00044758487 -0.0019808114 0.00026861456
0.00031540837 0.000904074 -0.0021844234 0.0006036866 0.0017736395 -0.00037406143 -0.001552098 -0.001311431
0.0009969734 -0.0018132271 -0.00072718284 0.00051610684 -0.00081984646 -0.00030098364 0.0012797944 0.0004623766
0.00032881807 0.0010377355 -0.00028391072 -0.0014615924 0.0012750088 0.0021926665 0.0003178898 0.0005047563
0.0032720007 0.0022407265 -0.0019147339 0.00014871199 -0.0013872936 -0.0015340891 -0.00021418257 0.0013660495
0.0015690972 -0.0003264402 0.0029798748 -0.00012950193 -0.00033603187 0.0012264033 0.0015098054 0.00021920855
-0.001070771 0.0005185105 0.0011694205 0.00028633384 0.0014258842 -0.0007944735 0.00013121116 6.395892e-05
-0.0009383557 0.0006760386 -0.0012414306 0.0004271985 -0.00020212939 6.02009e-05 0.0009254659 -0.00065902364
0.002487521 -0.00067032926 0.00049603777 -0.0005662061 0.0010112791 0.00035771795 0.00044910476 -0.0021745025
0.0026166353 -0.0020043524 0.00060262415 -0.0003936018 0.0010907276 -0.00043444993 -0.00046116725 -0.00055235927
-0.00084808894 0.00022061299 0.0021274907 0.00043110183 -0.0014019534 -0.0013650602 0.0005207576 0.000110264176
0.0008455904 0.0009402558 0.0021685183 -0.0017133368 0.0012922536 0.00017842493 0.0013934807 4.7953254e-05
00000000: 33c7 cb3a f45c 88ba 20de beba d612 0b3b
00000010: 0797 3739 4bf0 a138 d7d1 4dba f091 033b
00000020: 4eab dbba 59ee 22ba 1dfa 2d39 f4a2 b83a
00000030: b284 29b9 9f26 a03a 554a 87ba 1367 6e3a
00000040: f4ad 48b9 82ea d73a 8e4e 5cbb bd5f 0bbb
00000050: e052 f2ba a26e f3ba 5c27 35ba 21eb eeba
00000060: aa87 033a 60bd 4fba 2ae1 353a a54d 6dba
00000070: 6f7a b33a 6390 053a 26e4 3bb9 17f3 b83a
00000080: 8b84 55ba dd20 b53a 78b3 c3ba 0ef9 c5b9
00000090: 8528 3a3a d3a9 eab9 80d0 01bb d6d4 8c39
000000a0: 655d a539 61ff 6c3a 8b28 0fbb b940 1e3a
000000b0: 7779 e83a ad1d c4b9 c46f cbba 53e4 abba
000000c0: e0ac 823a cea9 edba 6aa0 3eba 584b 073a
000000d0: f7ea 56ba 57cd 9db9 c6be a73a 236b f239
000000e0: 3765 ac39 a004 883a dad9 94b9 e792 bfba
000000f0: 321e a73a d7b2 0f3b 72aa a639 9f51 043a
00000100: 106f 563b 27d9 123b cff7 faba 92ef 1b39
00000110: d9d5 b5ba 7d13 c9ba 3296 60b9 040d b33a
00000120: 2aaa cd3a 1026 abb9 014a 433b e9ca 07b9
00000130: 6f2d b0b9 44bf a03a aae4 c53a 59db 6539
00000140: 1d59 8cba a7ec 073a 3e47 993a 141f 9639
00000150: bce4 ba3a 3744 50ba ba95 0939 af21 8638
00000160: fcfb 75ba 2f38 313a 80b7 a2ba 9df9 df39
00000170: b2f2 53b9 3980 7c38 f79a 723a 54c2 2cba
00000180: ad05 233b 09b9 2fba 8808 023a 736d 14ba
00000190: e58c 843a 178c bb39 d275 eb39 1982 0ebb
000001a0: db7b 2b3b 745b 03bb 6cf9 1d3a 575c ceb9
000001b0: bff6 8e3a e2c6 e3b9 d2c8 f1b9 34cc 10ba
000001c0: 4952 5eba 5954 6739 5f6d 0b3b 8205 e239
000001d0: c0c1 b7ba d2eb b2ba 7383 083a a13d e738
000001e0: 9caa 5d3a 807b 763a b31d 0e3b 0b92 e0ba
000001f0: d660 a93a 9417 3b39 74a5 b63a 6a21 4938

action_net.bias f4 [2]
0.0 0.0
00000000: 0000 0000 0000 0000

value_net.weight f4 [1, 64]
-0.17622852 0.026200678 0.0008059301 0.14422975 -0.09115734 0.059011105 -0.2634756 -0.0009999085
-0.15327862 0.09775777 0.29797363 0.07280753 -0.14982562 -0.030422645 -0.002582909 0.037423383
0.0039124903 0.09738382 -0.10343898 -0.14882061 0.009618573 -0.22739863 0.02176173 -0.009654608
0.08482075 -0.015690273 -0.09172244 0.1596237 -0.14078125 -0.01585581 0.036674447 0.28107262
0.09732391 0.021526644 0.06723752 0.10366033 0.023493519 0.05914314 -0.11715416 0.08475614
-0.03995857 -0.10812497 0.119597696 0.08901391 -0.051478628 0.13621566 0.06167578 0.17800145
0.026059516 -0.09889715 0.20919189 0.1641927 -0.036516424 0.20849176 -0.04230842 -0.043302577
-0.11731959 -0.06962699 -0.17511055 -0.20241907 -0.10991847 0.1517832 -0.18775107 0.21264774
00000000: 4075 34be cea2 d63c 0e45 533a f7b0 133e
00000010: b3b0 babd a1b5 713d 46e6 86be 5d0f 83ba
00000020: 12f5 1cbe 3a35 c83d 0090 983e 1d1c 953d
00000030: e36b 19be e938 f9bc 0646 29bb 4349 193d
00000040: 5934 803b 2b71 c73d d1d7 d3bd 6e64 18be
00000050: 3897 1d3c 30db 68be a845 b23c 5c2e 1ebc
00000060: 80b6 ad3d e388 80bc fad8 bbbd 6574 233e
00000070: f628 10be 0be4 81bc f237 163d c0e8 8f3e
00000080: c251 c73d a558 b03c d3b3 893d de4b d43d
00000090: 7b75 c03c 1440 723d 85ee efbd a194 ad3d
000000a0: 99ab 23bd a070 ddbd a3ef f43d ed4c b63d
000000b0: 41db 52bd 1e7c 0b3e be9f 7c3d 0346 363e
000000c0: c47a d53c 978a cabd 6636 563e 2222 283e
000000d0: 3f92 15bd dd7e 553e 984b 2dbd 0b5e 31bd
000000e0: 4145 f0bd 9898 8ebd 2e50 33be f246 4fbe
000000f0: ef1c e1bd 0e6d 1b3e d141 40be 54c0 593e
